models/R2_S.onnx (onnx, 691885 bytes, 6 tensors)

2 f4 [200, 784]
00000000: 8c87 5c3c cb71 d93c a051 8bbc b0eb cb3c
00000010: db52 083b 6c45 603c bd50 cd3b ebe1 0f3d
00000020: 8704 273c 63ea 2d3c 7a06 47bc ba5a 483c
00000030: 6408 303d 876d 953c f78c 2e3c b0a9 42bc
00000040: 7629 613c 8482 c73c 4e02 2f3d d832 79bc
00000050: 2ac4 86bc 03e6 a43c 2abd 093c ea4a 303d
00000060: 80a7 babc f748 ff3b 503e 8e3b e7cc f23c
00000070: 1a7b 1c3d 3b48 8cbc cae0 2e3d d35b 64bc
00000080: e921 303b cabe dfbc e2a9 b1bc 88ec 2f3c
00000090: 2945 c8bc 578a a83c 83de fe3b bb00 f8bb
000000a0: 9d44 9eba 2a4d ac3c 5e8b 8b3a 4916 89ba
000000b0: 381e 133c e0d2 2d3c 4a17 003c 86db 373c
000000c0: 09a9 52bc b3a1 313c 55a2 303d b7d8 173c
000000d0: 5170 2bbc 6f44 2fbc 523f 9f3c b015 6c3c
000000e0: 0082 afbc 7a14 acbb 876a e63c 66b8 d6bc
000000f0: 148b 7cbc 7c67 8cbb 6904 a2bc 5bde 093d
00000100: d382 0f3d 9082 78bc d77d 803d 4690 3f3d
00000110: dcd8 55bc 0d9e b3bc ed37 1eba 21fd 273c
00000120: 94e1 87bc aea5 2e3d fc07 363d eec6 293c
00000130: 00b3 1a3c ff4f 383d 8c5f 1c3d 3b04 c93c
00000140: c980 2e3d dc58 d23c 2fab 643c 761b 6cb9
00000150: bac1 c93c ada3 20bc 041c 1f3d cf71 a83c
00000160: e986 c8bc 1035 7e3c 262a 073d 7dee a73b
00000170: 49ac 2a3d 681b c2bb 5d4e 2d3a ab3f 2ebd
00000180: 59e6 563c f25a d33c d636 d23b 6566 433d
00000190: c827 f83c c387 e1bc 718f 17bd d283 9fbb
000001a0: 0197 f1bc eb6e 76bc fd6b ae3c b7ca b93a
000001b0: 411f 293d edd6 193d 7ced c5bb abca abbc
000001c0: bf85 223b 746f 953c d266 c13b e91e cb3c
000001d0: 9786 a6bc e04e d03c 5ff5 f9bc ab1c 5ebc
000001e0: ab6d 04bc cfd3 dbbc fd79 b0bd 8e66 0abd
000001f0: 62e5 98bd e480 8fbd 0a9d 7ebd b200 6c3d
00000200: 8a3f e4bc 39e7 f8bc d8e9 32bd 17f0 4ebd
00000210: a4c5 c2bd 83e0 7dbd d0a3 96bb 456b a33b
00000220: 2b0f 103d aa3c 9b3d b4d2 413d 6f9d e13c
00000230: 2fb4 aa3c 47da f93c 03fb 023c 1cd5 adbc
00000240: d510 033b 5978 afbc 3209 05bd d48d 2abd
00000250: 6c1c 44bd c507 98bd 7bda 59be a393 26be
00000260: eac1 82be f098 63be 22b6 85be 6c64 21be
00000270: fbe5 1bbe 6c4e 84be 6bbc 43be 0f1d 7ebe
00000280: ff7d 5ebe dde4 f3bd bf41 a0bd 0a7b 8fbd
00000290: 5dfb 06bd 063a df3c 892d 8dbb 2167 b03c
000002a0: 40f0 b8bb a5d1 bebc f5ed 2a3c dc67 eabb
000002b0: 88f0 013d 7cc9 9dbd 76f6 a3bd e607 e4bd
000002c0: f078 97bd 0686 21be 2185 7abe 8e2d 25be
000002d0: 3647 bbbe f2d1 79be 94ef 9cbe d842 01bf
000002e0: 68c3 d8be cfc3 95be 15b7 30be 1cd3 adbe
000002f0: 8965 53be 6b66 013d 5308 68bd c26e f1bd
00000300: 9cc7 b9bd cdb0 20bd 4f9b 253d fdd1 b83c
00000310: a489 5dbb a3d2 c3bc 5978 3d3d c535 1a3d
00000320: 9ce3 333b 6822 37bd 6734 29bd 4c64 76bd
00000330: 5363 b5bd e371 fbbd c6fc 5f3c 98e0 2fbd
00000340: 2f63 b53d 433c edbc 4fe5 39be 98e9 83be
00000350: 2d9c 5cbe 0fde 6abb 0721 bdbb f282 d6bd
00000360: bd60 40bd 5619 74bb 06d6 e63d 2f1d f2bc
00000370: 113d 0bbe 3c1b 92bd 9d6c ec3c 75d1 933a
00000380: a8f7 2d3d f103 1ebc b988 113d b396 533d
00000390: 1579 863d 735a 53bd 0703 bebc 085f 58bc
000003a0: 0adc 2abd 57e0 d8bd 2035 de3d 39a9 1c3e
000003b0: 15aa 093e 85fd ce3d 076f 373e 764d 683e
000003c0: 296f 583e a209 243e 3949 043e 751f d93d
000003d0: 6d85 a23d 4cd5 823d 9a7c d33d a5dd a63d
000003e0: 7885 1dbc 7c41 9abd 5ba1 0abd be03 b1bc
000003f0: b7e4 29bb e4e9 8abc 12cb ba3b accf 4e3d
0.013460051 0.026543519 -0.017006695 0.024892658 0.0020801339 0.013688426 0.0062657283 0.03512756
0.0101939505 0.010614964 -0.01214754 0.012228662 0.042976752 0.018240703 0.010653726 -0.011881277
0.013742795 0.024354227 0.042726807 -0.015209876 -0.01645096 0.02012921 0.008406917 0.043040194
-0.022784948 0.0077906805 0.0043409243 0.02963872 0.038203336 -0.017124286 0.042694844 -0.013937908
0.002687568 -0.027312655 -0.021687452 0.010737546 -0.02444704 0.020573778 0.0077779903 -0.0075684465
-0.0012074892 0.021032888 0.0010646393 -0.0010458912 0.008979373 0.010609359 0.007818053 0.011221772
-0.012857684 0.010841775 0.043123562 0.009267977 -0.01046379 -0.010697468 0.019439373 0.014409468
-0.021424294 -0.0052514644 0.028126968 -0.026210975 -0.015414018 -0.0042847972 -0.019777494 0.03365932
0.035036873 -0.015167847 0.06274002 0.04676845 -0.013052192 -0.02192595 -0.0006035555 0.010253222
-0.016587056 0.042638473 0.04444121 0.01036237 0.009442091 0.044998165 0.038177058 0.02453815
0.042603288 0.025677137 0.013956829 -0.00022516944 0.024628509 -0.009804648 0.038845077 0.02056208
-0.024478393 0.015515581 0.03299918 0.0051248656 0.04166821 -0.0059236772 0.00066111033 -0.042541187
0.013116443 0.025800202 0.0064152284 0.047705073 0.030292407 -0.027530557 -0.03700203 -0.004868009
-0.02949095 -0.015041093 0.021291727 0.0014174794 0.04128957 0.037558485 -0.0060402732 -0.020970663
0.0024798957 0.018241622 0.0059021497 0.024795013 -0.02032785 0.025428236 -0.03051251 -0.01355664
-0.0080827875 -0.026834397 -0.086170174 -0.03378921 -0.07465626 -0.07007006 -0.062161483 0.05761785
-0.027862329 -0.030383693 -0.043680042 -0.050521936 -0.09510353 -0.06198169 -0.0045971647 0.0049871528
0.035170715 0.0757993 0.047320083 0.02754089 0.020837871 0.03049959 0.007994416 -0.021219783
0.0019999046 -0.02141969 -0.032479472 -0.041639164 -0.047878668 -0.07423357 -0.2127475 -0.16267256
-0.2553857 -0.2222631 -0.2611552 -0.15760964 -0.1522445 -0.2584108 -0.19114845 -0.24815772
-0.21727751 -0.119088866 -0.0782504 -0.0700589 -0.032954562 0.027249347 -0.0043084067 0.02153355
-0.0056438744 -0.023293326 0.01043271 -0.0071534943 0.03172353 -0.07704446 -0.08005993 -0.11134319
-0.07396114 -0.15773782 -0.24464847 -0.16130659 -0.36577767 -0.24396494 -0.30651534 -0.5049262
-0.42336583 -0.29250953 -0.1725734 -0.33950126 -0.20644201 0.031591814 -0.056648564 -0.117887035
-0.090712756 -0.03923111 0.040431317 0.022561068 -0.0033803964 -0.02390415 0.04625735 0.037648935
0.0027448898 -0.044710547 -0.04130974 -0.060154244 -0.08856835 -0.122775815 0.013671106 -0.0429388
0.088568084 -0.0289594 -0.1815388 -0.25764155 -0.21543951 -0.0035837924 -0.0057717594 -0.104741946
-0.046967257 -0.0037246547 0.112712905 -0.029554931 -0.13597514 -0.07134101 0.028860385 0.0011277633
0.04247251 -0.009644494 0.03553078 0.05165739 0.06566063 -0.05159993 -0.023194803 -0.013206251
-0.04171375 -0.105896644 0.108499765 0.15298928 0.13443787 0.10106949 0.17913447 0.22685799
0.21136154 0.160193 0.12918557 0.10601703 0.07935605 0.063883394 0.103265 0.08147744
-0.009614341 -0.075320214 -0.033845287 -0.02160823 -0.0025923678 -0.01695723 0.0057004774 0.05049102

3 f4 [200]
00000000: 622a e7b7 93c2 cb3c 88ca aebc b94a ab3d
00000010: 44f4 91bb 2151 a5bc aee6 113c 0a48 893c
00000020: b85a 563c c520 2bbc bac7 93bc b63b 86bb
00000030: f6b1 7b3c f0ee 05bd 4752 26bc 0e7f 413d
00000040: 757a 3bbd f178 fc3b 0436 ee3a c8d6 30bc
00000050: f0bd 7fbd e9dc ad3c d12f aebc 7084 c03c
00000060: 786e 773c 800a 0fbd 71a3 e0bc 4129 8d3a
00000070: f0d1 0d3b 36f2 4c3d 4439 6dbb 6dea be3b
00000080: a15c e13b 085d 0ebd 4f5a 823b 2235 be3b
00000090: fafe 063d 73b3 fdbc 9b94 c1bd 06a5 02bd
000000a0: 7975 afbc 129c 413d c928 213d 8a95 353b
000000b0: 6406 293c b4b8 32bb 10b3 863b 6e53 4c3d
000000c0: dac7 19bd d2d7 d8bc 2118 4cbc 9124 6c3b
000000d0: d39d 89bc 773f 9c3c 380a 4b3d e506 a4bc
000000e0: 1cd6 51bc b601 87bc 0410 1fbd 6307 6ebd
000000f0: 75d6 36bd 9633 adbd bf9c 64bd 8065 65bd
00000100: eef6 463c 2f93 9abc f497 79bc d6ca 41bd
00000110: fde0 bc3d e58c c1bc bba4 21bd 6524 a63c
00000120: dc23 28bd f325 19bd b344 22bc c7fe 413c
00000130: 1902 a73d c0a3 5b3b a722 8dbd bb45 ce3a
00000140: 1a3b 3fbd 942a c9bb ae03 2b3d c12e 60bc
00000150: 9f1a 3abd 9252 efbb 12d2 f3bc d233 dfbb
00000160: 0dcd 5f3d c15b f0bc 570f 5838 cbc1 a4bc
00000170: 88dd 9ab8 5a6d b4bc 0c14 f7bc 2978 10bd
00000180: a21a cdbc 7229 d8bc 8d57 bfbd 526e 833c
00000190: 6dcb 90bd 5448 5b3d 9005 52bd 5d50 89bb
000001a0: dd52 f43b 1d72 7b3c f762 13bc 6c7c 0539
000001b0: 1ffd 623c 5cc9 cdbc 6d48 c53d ccae 3cbc
000001c0: 4c42 a538 454d 2ebd facd c4bc c992 13bd
000001d0: 956b eb3c e687 653d 3586 8e3d 0214 c739
000001e0: c1ee ffbc 4b87 eb3c 73b0 0b3d cd15 e0bc
000001f0: f07c 0fbd 0efe 20bd 0efe b73c a74b a23c
00000200: 7fb8 d3bc d4bd 15bd 4019 41bb 9c81 3d3d
00000210: 20fb 1b3c ef23 c9bc 5a83 ea3c 0fb0 10bd
00000220: 8f2e 933d 9062 8fbc aecb cabb 7d21 6fbb
00000230: 7e3e 873d e121 0bbd 6227 3c3d f15f 34bd
00000240: c9c1 293d 9332 e53b 83e1 fbbc d0f5 3c3c
00000250: 8cbd bdbc 0db6 8b3c fa30 99bc 05c6 693d
00000260: ec54 86bc a22d 26bd d082 5b3d 82cf 0bbd
00000270: 535e 42bd 32de b4bd 8271 99bc c650 ef3c
00000280: 1e3a 6cbc cdd9 d0bb d304 26bd 8440 acbc
00000290: 5417 963d 07d6 2ebd 2e67 67bc b804 4cbd
000002a0: 1af6 2bbc bbbd 103d a1c2 2d3c 7875 043e
000002b0: 5958 d03c ead1 643b 66a1 02bd d3ea 85bc
000002c0: 377d 033d 6ca9 553c 5767 9f3d 192f 003c
000002d0: 54d4 86bd 56e9 403d dfcc 1fbc 7212 23bd
000002e0: cdeb a2bb 9ffd eebc c7ae f53c 02c1 94bd
000002f0: ddd9 c0bc ed7a 60bd 7c1c 6a3a e94c d3bc
00000300: 5b19 94bc 7b6e f2bc 8328 0e3d eca2 6f3d
00000310: 1f0d 56bd 48aa d7bc 0244 d13b ff94 6a3d
-2.7557082e-05 0.024873054 -0.021336809 0.083638616 -0.0044541676 -0.020180287 0.008905096 0.016757984
0.0130831525 -0.010444825 -0.018039573 -0.0040964736 0.015362253 -0.03269857 -0.010151452 0.04724031
-0.04577108 0.007704847 0.0018174057 -0.010793395 -0.062436998 0.021223502 -0.021263035 0.023500651
0.015102021 -0.034922123 -0.027421685 0.0010769741 0.0021640025 0.050035678 -0.0036197463 0.0058262856
0.0068774973 -0.03475669 0.003978051 0.005804674 0.03295801 -0.030969357 -0.09452172 -0.03189566
-0.02141832 0.04726798 0.039345536 0.002770754 0.010316465 -0.0027270736 0.0041107014 0.049884252
-0.03754411 -0.026470099 -0.012456925 0.0036032537 -0.01679889 0.019073231 0.049570292 -0.020022819
-0.012807395 -0.016480308 -0.038833633 -0.058112513 -0.044638116 -0.08457105 -0.055813547 -0.056005
0.012143834 -0.01886901 -0.015233982 -0.04731258 0.092226006 -0.023626754 -0.03946374 0.020281026
-0.041049823 -0.037389707 -0.0099040745 0.011840529 0.08154697 0.003351435 -0.06891375 0.0015737334
-0.046687223 -0.006139109 0.041751556 -0.013683022 -0.045435544 -0.0073035443 -0.029763255 -0.0068115974
0.05463891 -0.029340627 5.15127e-05 -0.020111939 -7.384556e-05 -0.0220248 -0.030160926 -0.035270844
-0.025037114 -0.02638695 -0.09342871 0.016043816 -0.070700504 0.053535774 -0.051274836 -0.0041904883
0.007456167 0.015347031 -0.008995763 0.00012730219 0.013854294 -0.02512043 0.09632955 -0.011516284
7.880162e-05 -0.04255416 -0.024023999 -0.036028657 0.028737823 0.056037806 0.06959192 0.00037971145
-0.031241776 0.028751036 0.034103822 -0.027354145 -0.03503126 -0.039304785 0.02246001 0.019811464
-0.02584481 -0.036557987 -0.0029464513 0.046266183 0.009520322 -0.024553267 0.028627086 -0.035324153
0.07186615 -0.017503053 -0.0061888313 -0.0036488466 0.06603716 -0.033967856 0.045935996 -0.04403681
0.041444574 0.0069945543 -0.03074718 0.011533216 -0.023161672 0.017054582 -0.018700112 0.05707361
-0.016397916 -0.040570863 0.05359155 -0.03413344 -0.047453236 -0.08831443 -0.018730883 0.02921332
-0.014418153 -0.00637362 -0.040531944 -0.021026857 0.07328668 -0.04268458 -0.014123721 -0.049809188
-0.010495687 0.03533719 0.010605485 0.12935436 0.025432752 0.0034915158 -0.031892203 -0.016347324
0.032101836 0.013040882 0.077833824 0.007823729 -0.06583467 0.047097526 -0.009753435 -0.039812513
-0.0049719573 -0.02917367 0.029990567 -0.07263376 -0.023541385 -0.05480473 0.0008930636 -0.02579351
-0.018078497 -0.029593697 0.034706604 0.058504984 -0.052258607 -0.026326314 0.006386281 0.057271

4 f4 [50, 200]
00000000: 02cf eebb 60c7 673d c752 f13d de5f 203d
00000010: 7b6b 163e d295 c9bd 6920 aabe 3b5f 0d3e
00000020: 4bec a5bd 7dfa e4bd 6eb0 54be 27cd 1c3e
00000030: 7f71 e6bc 654f 83be 0f0b 923d a9e4 5b3e
00000040: 0b70 2ebe 29b4 733c 9343 2fbc d05f fabd
00000050: b216 d73e f3c7 28bd 2ba2 be3c 1cb9 243e
00000060: 54cd 0e3e 27c4 d53a 40ee 8ebd 9dce 1ebd
00000070: 1c3c c5bd 5849 643d ecb0 843c 0054 acbd
00000080: 0dd1 d23d 5f58 a6be 6877 1f3e 912b 043e
00000090: 99b8 163e a928 e93d d79d 9a3e 3bfa 723d
000000a0: c311 16be 9970 b2bd a066 46be 9d87 1f3e
000000b0: f878 c83d 5d8c 83be aaf9 eabc 552a 9bbc
000000c0: 3ecd 153d 5167 3f3e 8b49 253d 76af 4cbe
000000d0: e438 243a 19b0 88bd e6ec 913e de25 7a3e
000000e0: 3cbf e83d 95a6 b2be 9a28 85bd 198c a3be
000000f0: 66c6 003c 8d4c 853d cce5 e5bd 5e5d 0a3e
00000100: a1bb 4ebe ff37 053e 0ac3 8dbc e953 64be
00000110: b515 f7bd e3b9 23be c6ce 37be 95c2 273d
00000120: 2797 e8be 132b 8ebc e269 fc3d 03d8 503e
00000130: 1308 c33e a207 bb3c 5eba 89bd 1cb3 a0be
00000140: f69d 84be c3e9 053e bb46 323d 5eb1 87bc
00000150: ce84 5d3d 0bd4 9cbe 9cee b73d aa85 e9bd
00000160: b8a2 923d 9358 9bba 01b5 5b3d 53e0 fbbc
00000170: 740c 19be 79a7 98bc 4276 183e cbc9 11bf
00000180: 6e5d 9e3e 03a5 423d 6963 e13c 8f15 9fbd
00000190: a009 3abc f9d5 6a3e 512a dc3e 4bef 73bd
000001a0: 633d 11bd f298 0a3d 4bab a53c 6ed1 5b3e
000001b0: 9106 71bd 5ca2 cfbc ba44 8d3e b6c4 993d
000001c0: c6fe 053e 45f0 ad3d 752a f9bd 065f 2fbd
000001d0: 17b6 97bd 8c10 203e 1b0a 5cbb 21b6 5bbd
000001e0: 6490 4f3e 6771 0d3d f140 803d bbcb 483e
000001f0: df2f a83e 6b0a 24bc 3039 0a3d 1a92 b9bd
00000200: 81dd 263d 49bf b3be 8eb2 a8bd 9b2c 8b3e
00000210: 4164 bcbe 5d69 41be 2194 163e 0439 e03e
00000220: 77c6 563c d9f6 083e 2fe4 8bbc 079b a0bd
00000230: b857 863b d3ee 243d 8d03 b6bc 7c42 aabd
00000240: 2828 d43e 1696 2a3e 90e0 ecbe daae 5a3e
00000250: 43be fabd 9cf4 223e d2bb 3b3e 54e1 b9bd
00000260: da6f 1ebc 64b6 5d3d b448 13bc 6b9f d8bd
00000270: 7b47 fcbc c221 19be e3ba 8d3d 14af 9fbd
00000280: f460 fa3d 9759 1a3e 6735 613d 0367 7fbd
00000290: f9ca 083e a3b6 ae3d b1fa 043d 9453 d23d
000002a0: f99d e73a 9482 c73e c77f 74be 96aa ea3d
000002b0: 256a 803d ba7e 29bd 1b63 8937 511d cb3d
000002c0: c96d 9bbe 5144 323e b1d3 4f3e 621b 623d
000002d0: 5f7e 4f3e df66 b93c ac45 213e 6582 ffbd
000002e0: a5a6 33be 8e84 7c3d 6afc 74bd 120e a5bc
000002f0: 091d 30bd 7260 fabe 954f fc3d a092 7e3e
00000300: 1023 ab3e 3041 67bd 1f83 14be 2ded 373e
00000310: 44cb 54bd f05f 8cbc 7053 a33d 495e e8bc
00000320: d416 2cbd 512d 0fbd 2576 05bd 0086 813e
00000330: 5b93 04be 47e8 243e ecbd a53d f50b 163e
00000340: 8827 36be 41bd eb3d 0ed8 f8bc 837f 26bd
00000350: 2cef 4bbd b18e 8f3e 3a47 8b3d 68a7 90bd
00000360: 0af4 16be a167 863e d3f0 b83d 0f18 3f3d
00000370: 3ca3 f33d d605 713c 5cd5 3ebe ad48 48be
00000380: b8de e3bd 8a25 453e bcc6 18bd fa22 a73d
00000390: 9550 c43d b4f8 723c 099d 8abe caf4 523d
000003a0: 61ce 483e 15c2 8b3e d451 a1be 9278 f2bb
000003b0: 478c 0cbd c11e 17ba bfaf aebb e3ed e43c
000003c0: ceb4 0e3e be8f 36be e0f3 123c a3f5 fb3d
000003d0: ddd5 623e e75a 8d3b 20de 043c c524 953d
000003e0: 08f7 b2bd 29e3 74be 4890 9abd 5102 233e
000003f0: 6f5d 1b3c e793 d8bb ce4b d8bc dc25 ba3d
-0.007287861 0.056586623 0.11783367 0.039153926 0.14689438 -0.09843029 -0.33227852 0.13805859
-0.0810171 -0.11180589 -0.20770428 0.15312634 -0.028130291 -0.2564651 0.071310155 0.21473946
-0.17034929 0.0148744965 -0.010697263 -0.12225306 0.42009503 -0.04120631 0.023270687 0.16086239
0.13945514 0.0016309068 -0.06979036 -0.03877126 -0.096306056 0.05573401 0.016197644 -0.08414459
0.102937795 -0.32489297 0.15572894 0.12907244 0.14718856 0.113847084 0.30198547 0.05932067
-0.14655213 -0.087128825 -0.19375086 0.15579076 0.09788698 -0.25693026 -0.028683502 -0.018941084
0.036572687 0.18691756 0.04035334 -0.19988808 0.0006264581 -0.06674213 0.28501052 0.24428508
0.113646 -0.34892717 -0.06501885 -0.31942824 0.007859802 0.065087415 -0.11225471 0.1351218
-0.20188762 0.13009642 -0.017304916 -0.22297634 -0.12064687 -0.15988879 -0.17949972 0.040957052
-0.4542782 -0.017354524 0.12324883 0.20394902 0.38092098 0.022830788 -0.06725 -0.3138665
-0.25901765 0.13077454 0.043524485 -0.016564067 0.05408173 -0.30630526 0.08981058 -0.114024475
0.071599424 -0.0011851959 0.053639416 -0.030746615 -0.14946157 -0.018634545 0.14888862 -0.56948537
0.30930656 0.04752065 0.027513223 -0.07767784 -0.011354834 0.22933187 0.43001035 -0.05955438
-0.035458934 0.033837266 0.02022328 0.2146661 -0.058844153 -0.025345974 0.27591497 0.07508223
0.1308547 0.084930934 -0.12166301 -0.04281523 -0.07407778 0.15631312 -0.003357536 -0.05364049
0.20269924 0.034531977 0.062623866 0.19608967 0.32849023 -0.010012249 0.033745944 -0.0906107
0.040738586 -0.35106876 -0.082371816 0.2718247 -0.36795238 -0.18887849 0.14704944 0.437935
0.013108841 0.13375415 -0.01707658 -0.07842069 0.0040998124 0.040266823 -0.02221849 -0.08313462
0.41436887 0.16658816 -0.46265078 0.21355763 -0.12243321 0.15913624 0.18333367 -0.09076181
-0.009670222 0.05412902 -0.008989502 -0.105772816 -0.030795803 -0.14954284 0.069204114 -0.077970654
0.122255236 0.15073238 0.05498257 -0.0623541 0.13358678 0.08530929 0.03246564 0.102698475
0.0017670981 0.3896681 -0.23876868 0.11458318 0.062702455 -0.04138062 1.6377822e-05 0.09917701
-0.30357197 0.17408873 0.20295598 0.055201896 0.2026305 0.02263206 0.15749234 -0.12476043
-0.17544039 0.06164985 -0.059811033 -0.02014831 -0.04299644 -0.48901707 0.123198666 0.2486062
0.33425188 -0.056458652 -0.14503144 0.17961569 -0.05195166 -0.01713559 0.07974899 -0.028365271
-0.042013958 -0.034955326 -0.032583375 0.25297546 -0.12946837 0.16104232 0.08092865 0.14652999
-0.17788517 0.11510707 -0.03037646 -0.04064895 -0.04978864 0.28038552 0.06800695 -0.0706318
-0.14741531 0.26250938 0.090303086 0.046653803 0.11896369 0.014710864 -0.18636078 -0.19558974
-0.111264646 0.19252601 -0.037298903 0.08160968 0.09585682 0.014829803 -0.27072933 0.05150298
0.19609977 0.2729651 -0.31507742 -0.007399627 -0.034313466 -0.00057647756 -0.005331009 0.027945464
0.13936159 -0.17828271 0.008969277 0.12302711 0.22151895 0.004313815 0.008109599 0.07282404
-0.08738524 -0.2391478 -0.07547051 0.15918852 0.0094827255 -0.006609428 -0.026403334 0.09089252

5 f4 [50]
00000000: a872 bc3c 2405 8bbb 6a02 f03d 570d e3bc
00000010: a216 303e 9497 0abe cf47 e53c 6f00 d0bc
00000020: fd53 a73d fe3e e33c 0514 a23d fb1f f33d
00000030: bd26 d23d aa1d 58bd 99f4 303e 2d4c 9a3d
00000040: 467a df3c b462 40bc cf49 243d 2d78 583d
00000050: 88c8 5c3e 884f 363d 82c3 2abd f951 0e3d
00000060: c49c a0bc 4c4f 65bd a558 ae3d a39c aebd
00000070: 5609 e7bc 3984 14be a61e adbd 74f0 a9bc
00000080: bc81 fe3c 9ea5 f63c d25e cfbc b0c3 333e
00000090: ea0e 243d bb46 2a3e 7ca3 753c 6deb 133d
000000a0: 2731 b83d b430 a93d c1cd 12bd 3369 fc3c
000000b0: 07da 843d 11ab ad3d cfe1 613c b9e3 0c3e
000000c0: 6891 a83d 85dc 2e3c
0.023003891 -0.004242556 0.117192104 -0.027716322 0.17196134 -0.13534385 0.027988343 -0.025390832
0.08170316 0.027739998 0.07913975 0.11871334 0.10261295 -0.052762665 0.17280807 0.075340606
0.027279984 -0.011742283 0.04010945 0.052848984 0.21560872 0.04450944 -0.041690357 0.034746144
-0.019606002 -0.055983827 0.08513001 -0.0852597 -0.028202694 -0.14503564 -0.08453111 -0.02074454
0.031067722 0.03010827 -0.025313769 0.17555118 0.040053286 0.16628544 0.014992591 0.03611319
0.0899375 0.082612425 -0.035840753 0.030811882 0.06486898 0.08479894 0.013786747 0.13758744
0.08230859 0.010672693

6 f4 [10, 50]
00000000: 4903 8a3e 5cb1 b73e 065e 303e bbbd fc3e
00000010: 5ab2 753e 20ff ecbd b99b 47bf 6c4c cd3d
00000020: fb8c fab8 755f 23bf 81e0 c6be d287 05bf
00000030: 196a 07be be42 b33e 715a af3e 5079 cc3e
00000040: 5d1a 17bc 7578 dc3e cd47 10bf 4ea0 0cbe
00000050: ed9d 1cbf 2c0c ad3e 60bb 56be fb0a 9ebe
00000060: fb9c eabd db59 bb3e cdf1 62be a05f bfbc
00000070: 1894 c1bd 1e57 4e3f 823e fcbc 9339 e73d
00000080: 9789 c63e 00cf 443e a1e0 c13e 2c88 15bf
00000090: 824b 093e c8f5 c2be 30df 94bd 1845 783e
000000a0: c706 a53b d25b 4b3d f07f 20bf 87f7 e73e
000000b0: 773b 29bf 3dfa 23be bcd6 973e 37f6 b1bd
000000c0: 0b78 843e 3519 303e b3df 85bf a7ad 60be
000000d0: 6053 b6be f085 5d3e 4b9a 0cbc f3b5 b63d
000000e0: ab90 1abc 7e27 1d3f 5c40 25be b635 2d3f
000000f0: a1a9 063f 3162 803e 6223 8a3e 7be0 08bf
00000100: 6eff 98bd 7293 0dbf 3e01 a6bd feb2 b9be
00000110: 8e76 f33e a85f a3be 38b8 033f c72e 6abf
00000120: 3986 ad3d 7f30 4cbf b84c 43bc 54db d13e
00000130: efc8 003e 5b64 61bd 0b84 1bbe beec 95bc
00000140: 92fc ca3d deac ff3e 7f7a 673e b0d2 b7bd
00000150: d452 01be dd0a 7e3e ae42 023f 7b93 853e
00000160: 1fb4 babe 053b 4ebe 27f9 d3be f19a 55bf
00000170: dda8 113e c175 16bd 9b9b 503e 581d 9fbe
00000180: e6a4 f63e 0ef3 123f ca23 d13d de42 4e3e
00000190: b5b2 af3e 4eb3 5b3d b76d da3e fbc3 92be
000001a0: a0d7 1f3f 403a 423d f801 88be ad57 dfbd
000001b0: 2813 153b 3261 14bf 3f36 b03c 444d 10bf
000001c0: 56d1 80be 7aa4 46bf 37e8 1cbe 1844 5e3d
000001d0: 7a1e 8a3f dea9 14bf 6839 5f3e 02be c03d
000001e0: 0b5d 263f 244f 603e 1dde 68be b9f5 91be
000001f0: d24a 773e 05b1 fd3e fc92 cabe e06f 253c
00000200: fa80 c0bd 5e7b bb3d 8fc5 9ebd 03ee a0be
00000210: 70dc bbbe 148c 87bc 373b 8d3f 7788 133f
00000220: 4562 f4bd 60a8 d5be bf71 34bf 5e96 953b
00000230: 3838 a0be 45c1 e23d 01a3 bfbe 6218 8fbe
00000240: 5479 253f df43 323f 9a6d 0b3f eef7 aabd
00000250: 9c6d b53e 907f 4bbd 1a3b 73bd b547 1c3d
00000260: 8423 8dbf 1aa0 003e 887b 263a ed9b b0bd
00000270: 2337 193f 3582 263e ad14 503e e22c 413f
00000280: b5c0 7fbe a277 48bf f297 ae3d 0bd8 eabd
00000290: 36c9 41be 41a5 4a3f 5308 dabe feac a93e
000002a0: ca4e 283f 9530 d13e 383b c1be b0d0 ed3e
000002b0: 90b0 3fbd 6784 893d 6352 a93e 33f2 083e
000002c0: c042 1c3e ac3d cfbd 70b8 cb3d ad2a b7be
000002d0: 32d5 3cbd 352b a1be da78 28bf 4b20 fc3d
000002e0: 8935 c6be 2ada c33e efe4 9abe 52d9 efbe
000002f0: 1a5c 4f3f 0d5b 893e 0a61 1a3f 8f90 03bf
00000300: 2d75 8dbd 3e22 90be ae64 d23e 6758 d4be
00000310: ddd1 fbbe fbc0 4dbe e348 92bc 601d 3cbd
00000320: fa2d 093e 76b9 e23d 3b2c 483f 40f7 47be
00000330: 773c 89be 4b3b f13d 83d5 dd3e 66ff 363e
00000340: 8dbc 103f 01b4 473f 296b 36bf ed0d bd3f
00000350: 8044 e0be 9e9a 2bbe f5fe 52bf aa6b 0f3d
00000360: b0fb ba3d d89d dbbe 22b5 863c b0bf 18be
00000370: 2bec 2b3e d19e 21bf cab4 643e 35a0 2a3f
00000380: 9d2f 37be 3545 cebe 5083 c63c 5442 6dbc
00000390: 4358 f03d 1c95 1c3f c0aa 933d a877 b73d
000003a0: f072 e2bd ca2c 9d3d c822 213f 0dd6 03bd
000003b0: 1770 12bf cce7 2e3f 4c8c 1bbf 27d6 babe
000003c0: cefe 4fbe 2152 0fbe b149 593f 1c34 99bd
000003d0: abc8 66bf 0152 acbe cac6 e93c a80f 1bbf
000003e0: e87b 763e af06 babd 4274 fc3e 1423 1cbf
000003f0: e822 69bf e734 60bf e6b6 323e 1873 303d
0.2695563 0.35877502 0.17223367 0.49363503 0.23993817 -0.11572099 -0.7797199 0.10024342
-0.000119471886 -0.6381753 -0.38843158 -0.5216037 -0.13224067 0.35011858 0.3424869 0.39936304
-0.009222594 0.4306065 -0.5635956 -0.13733026 -0.61178476 0.3379835 -0.20969915 -0.30867752
-0.11455723 0.36591992 -0.22162552 -0.023361027 -0.09452075 0.8060168 -0.030791525 0.11290278
0.38776848 0.19219589 0.3786669 -0.58410907 0.1340771 -0.3807814 -0.07269132 0.24245107
0.0050362083 0.049648114 -0.6269522 0.45306036 -0.6610636 -0.16013427 0.29656017 -0.0868954
0.25872836 0.17197116 -1.0458893 -0.21941243 -0.35610485 0.21633124 -0.008581708 0.08921423
-0.009433906 0.61388385 -0.16137832 0.6766008 0.52602583 0.25074914 0.2698012 -0.5346753
-0.07470594 -0.5530311 -0.08105706 -0.36269373 0.47551388 -0.31908917 0.5145297 -0.91477627
0.084728666 -0.797615 -0.011920147 0.40987647 0.1257665 -0.055027347 -0.15187089 -0.018301364
0.09911455 0.49936575 0.22605322 -0.08975732 -0.12629253 0.24808832 0.50882995 0.2608908
-0.36465546 -0.20139702 -0.41401026 -0.83439547 0.14224572 -0.036733393 0.20371859 -0.31077075
0.48172683 0.5740212 0.10211904 0.20142695 0.3431603 0.053637795 0.4266183 -0.28665146
0.6243839 0.047418833 -0.26564002 -0.10905395 0.0022747014 -0.5796081 0.021510242 -0.563679
-0.2515971 -0.7759472 -0.15322958 0.054264158 1.0790551 -0.58071697 0.21799242 0.09411241
0.6498572 0.2190519 -0.2274098 -0.28507784 0.24149635 0.49549118 -0.39565265 0.010097474
-0.093996 0.0915439 -0.07752525 -0.3143159 -0.36691618 -0.016546287 1.1033696 0.57630104
-0.11932806 -0.41730022 -0.7048606 0.0045650443 -0.31292892 0.110720195 -0.3742905 -0.2794829
0.6463826 0.69634813 0.54464114 -0.0834807 0.35435188 -0.0496822 -0.059382536 0.038154323
-1.1026464 0.12561074 0.0006350805 -0.086234905 0.59849757 0.16260608 0.20320387 0.7545911
-0.24975856 -0.78307545 0.08525075 -0.11466988 -0.18924412 0.7915841 -0.42584476 0.33139795
0.6574522 0.40857378 -0.37740493 0.46448278 -0.046799242 0.06714707 0.3307067 0.13373642
0.15259838 -0.10119185 0.09947288 -0.35774747 -0.046101756 -0.31478277 -0.65809405 0.12310847
-0.3871272 0.38252383 -0.30252787 -0.4684549 0.8099991 0.2682728 0.6030432 -0.51392454
-0.06907115 -0.28151125 0.41092438 -0.41473696 -0.4918355 -0.20093147 -0.01785702 -0.04592645
0.13396445 0.1107053 0.7819249 -0.19527912 -0.26803944 0.11778887 0.4332696 0.17870864
0.56537706 0.7800904 -0.71257263 1.4769875 -0.4380226 -0.167582 -0.82420284 0.035014786
0.09130037 -0.42893863 0.016443793 -0.14916873 0.1678931 -0.6313296 0.2233459 0.66650707
-0.17889257 -0.40287176 0.024232537 -0.014481146 0.117355846 0.6116502 0.07210302 0.089583695
-0.11057079 0.076745585 0.62943697 -0.032186557 -0.57202286 0.68322444 -0.6076095 -0.3649151
-0.20312044 -0.13996173 0.8487807 -0.07480642 -0.90149945 -0.33656314 0.028537173 -0.60570765
0.24070704 -0.09083306 0.49307448 -0.60991025 -0.9106889 -0.8758072 0.17452583 0.043078512

7 f4 [10]
00000000: e83c d6be d110 5f3e c927 bd3e 2f1f 463e
00000010: f77e c0bd 8bb2 8fbe 25fc e53d a15c 1b3d
00000020: f527 bb3d b5a0 393e
-0.41843343 0.21783759 0.36944416 0.19347833 -0.093992166 -0.28065905 0.112297334 0.037930135
0.091384806 0.18127711
