models/R_S.onnx (onnx, 333457 bytes, 4 tensors)

2 f4 [100, 784]
0	0x3d99a2e9	0.07501776
1	0x3db853e2	0.090003744
2	0x3db6c2c9	0.08923871
3	0x3ded7f33	0.11596527
4	0x3dc08156	0.09399669
5	0x3d841839	0.064499326
6	0x3dd6cd36	0.1048836
7	0x3d983c88	0.074334204
8	0x3db537f2	0.08848561
9	0x3de5b16f	0.112154834
10	0x3de34777	0.11097615
11	0x3dd2d53a	0.10294576
12	0x3dab0764	0.08351019
13	0x3dd785ee	0.10523592
14	0x3d89b5b6	0.06724112
15	0x3dac5436	0.084144995
16	0x3da7c541	0.0819192
17	0x3e006390	0.1253798
18	0x3d78b4e2	0.06071938
19	0x3dc6e8ea	0.097123936
20	0x3df40cf7	0.11916535
21	0x3dd34a32	0.10316886
22	0x3dde6242	0.10858585
23	0x3d959da8	0.07305461
24	0x3d96dc50	0.0736624
25	0x3e044108	0.12915432
26	0x3e01d7d0	0.12679982
27	0x3de2484a	0.11048944
28	0x3daaa089	0.08331401
29	0x3d939907	0.07206922
30	0x3dd40f62	0.103544965
31	0x3deae7bb	0.1146998
32	0x3da77641	0.08176852
33	0x3df3b0bc	0.11898944
34	0x3dd78292	0.10522951
35	0x3df7d155	0.12100474
36	0x3de05727	0.10954123
37	0x3d994c9e	0.07485317
38	0x3e002ef5	0.12517913
39	0x3de92ba8	0.1138528
40	0x3daf9d3c	0.08574912
41	0x3dd67b89	0.10472781
42	0x3e0e4acb	0.13895719
43	0x3de29bf7	0.11064904
44	0x3df0521f	0.11734413
45	0x3dcc37f0	0.09971607
46	0x3e1b1f8a	0.1514875
47	0x3dbce6ba	0.09223695
48	0x3e07504f	0.13214229
49	0x3ddd4d7c	0.108057946
50	0x3d99dc80	0.0751276
51	0x3e032844	0.12808329
52	0x3e01fd78	0.12694347
53	0x3dd1893a	0.10231252
54	0x3de65313	0.11246314
55	0x3dc5924a	0.09647043
56	0x3ddd47c2	0.10804702
57	0x3da37161	0.0798061
58	0x3dde9293	0.108678006
59	0x3e036aa9	0.12833656
60	0x3ddc53ec	0.10758194
61	0x3dcdcc15	0.10048691
62	0x3df5e7fa	0.12007137
63	0x3dec77e3	0.11546304
64	0x3dd6784d	0.10472164
65	0x3da1a338	0.0789246
66	0x3d4b0dbb	0.04957364
67	0x3d925784	0.071455985
68	0x3d2ade10	0.04171568
69	0x3c87bd73	0.016569829
70	0x3dd1d718	0.10246104
71	0x3ddbec65	0.10738448
72	0x3e200a48	0.15628922
73	0x3dfee6b3	0.12446346
74	0x3e253ca8	0.1613642
75	0x3e1171a9	0.14203514
76	0x3e04768d	0.12935849
77	0x3e0133a9	0.12617363
78	0x3df61495	0.120156445
79	0x3e0ffe5e	0.14061877
80	0x3dafb5a9	0.08579571
81	0x3dd72550	0.10505164
82	0x3da936c1	0.082623966
83	0x3daf345a	0.08554907
84	0x3dfafc37	0.122551374
85	0x3d983698	0.07432288
86	0x3d8bfef5	0.068357386
87	0x3da4910c	0.08035478
88	0x3d999803	0.07499697
89	0x3dcaf960	0.09910846
90	0x3dd5e07d	0.10443208
91	0x3e07ee33	0.1327446
92	0x3d82c7f3	0.063857935
93	0x3d2799fa	0.040918328
94	0xbbe1f88a	-0.0068960832
95	0xbc9437bb	-0.01809298
96	0xbd37ab89	-0.044841323
97	0x3bd8786b	0.006606152
98	0x3d906793	0.07051005
99	0x3db40f5e	0.087919936
100	0x3e59a29e	0.2125344
101	0x3eb4c5da	0.353072
102	0x3ed83219	0.4222572
103	0x3ed9acfa	0.42514783
104	0x3e8ae488	0.2712748
105	0x3e4555ec	0.19271058
106	0x3deacdd6	0.11465041
107	0x3e14540b	0.14485185
108	0x3e0c3784	0.13693053
109	0x3c252570	0.010079727
110	0x3dc21cd2	0.09478153
111	0x3daa2e31	0.083095916
112	0x3dbdcf9a	0.092681125
113	0x3da1f169	0.079073735
114	0x3ddaadbe	0.1067767
115	0x3e026fa1	0.12737896
116	0x3de417ca	0.1113735
117	0x3dc41f55	0.095762886
118	0x3d9f9199	0.077914424
119	0x3dc0e12e	0.094179496
120	0x3d596299	0.053072546
121	0xbd18e1cc	-0.03732471
122	0xbd4c9a80	-0.04995203
123	0x3dbb7647	0.09153419
124	0x3cec3cd7	0.028837604
125	0x3e609a36	0.21933827
126	0x3d6c6d1d	0.057721246
127	0x3e1acaf7	0.15116487
128	0x3db8976c	0.090132564
129	0x3dc4b116	0.09604089
130	0x3da53284	0.08066276
131	0x3e482f36	0.1954926
132	0x3e164811	0.14675929
133	0x3d01da10	0.0317021
134	0xbd0a526a	-0.033770002
135	0x3cd7410c	0.026276134
136	0x3c8b2062	0.016983215
137	0x3b9110f2	0.004427069
138	0x3d7b6e1a	0.061384298
139	0x3db1f312	0.0868894
140	0x3d870b79	0.06593985
141	0x3e000cbc	0.12504858
142	0x3d8fbc87	0.070183806
143	0x3e05dfc6	0.13073644
144	0x3dae94db	0.08524486
145	0x3d91d6d1	0.07121051
146	0x3d673671	0.056448404
147	0x3d58522c	0.05281274
148	0xbd461fc5	-0.04837014
149	0xbe3854b4	-0.18001062
150	0xbe3e0c8e	-0.18559477
151	0xbeb45aa4	-0.35225403
152	0xbe699556	-0.22810873
153	0x3e2b78f9	0.16745366
154	0x3e80ad65	0.2513229
155	0x3ef4e852	0.47833496
156	0x3ed97444	0.42471516
157	0x3e823980	0.25434494
158	0x3e6a4b69	0.22880329
159	0x3dc8bc17	0.098015
160	0xbe83ef03	-0.2576829
161	0xbdca2851	-0.09870971
162	0xbddce242	-0.10785343
163	0xbc095b8a	-0.008383641
164	0xbc97b113	-0.018517053
165	0x3be86c44	0.0070929844
166	0x3db471d4	0.088107735
167	0x3dd96070	0.10614097
168	0x3df310df	0.11868452
169	0x3dec65a7	0.11542826
170	0x3da83eff	0.082151406
171	0x3db4b58e	0.08823691
172	0x3db7a2a6	0.089665696
173	0x3db4b0bb	0.08822771
174	0x3d433d6f	0.04766601
175	0xbcf7b8a7	-0.030239416
176	0xbcf09e03	-0.02937222
177	0xbe6d84a9	-0.23195137
178	0xbeb61344	-0.35561574
179	0xbefdbd69	-0.4955857
180	0xbdc0ba49	-0.09410531
181	0x3e3ff594	0.18746024
182	0x3d8cdf9c	0.068785876
183	0xbde61f92	-0.1123649
184	0xbe730d4d	-0.23735543
185	0xbe944830	-0.28961325
186	0xbe2239cc	-0.1584236
187	0xbe547c5e	-0.20750567
188	0xbeb0e976	-0.34553117
189	0xbdca8fb5	-0.09890691
190	0xbd84fbee	-0.06493364
191	0xbe136982	-0.14395717
192	0xbbe65e27	-0.007030267
193	0x3c5f50a6	0.013630068
194	0x3d225002	0.039627083
195	0x3d979def	0.0740317
196	0x3db41d62	0.08794667
197	0x3df008eb	0.11720451
198	0x3daba9f0	0.083820224
199	0x3daa9221	0.08328653
200	0x3dbc1799	0.091841884
201	0x3da41265	0.08011321
202	0x3d3323cd	0.043735314
203	0x3e052aea	0.13004652
204	0x3db029ae	0.086017
205	0xbe3f386f	-0.18673871
206	0xbe9fd207	-0.31214926
207	0xbea19f25	-0.3156673
208	0xbe86ab37	-0.26302502
209	0xbdd5dc87	-0.10442453
210	0x3e0a234c	0.13490027
211	0xbe662031	-0.22473218
212	0xbe105fcf	-0.14099048
213	0xbeced39c	-0.4039582
214	0xbead9344	-0.33901417
215	0xbe9f00ea	-0.31055385
216	0xbe4e6d33	-0.20158844
217	0xbe3fee64	-0.18743283
218	0xbaa8e79f	-0.0012886411
219	0xbd374d06	-0.04475119
220	0xbc172193	-0.009224313
221	0x3d8e3c4f	0.06945097
222	0x3d91d75f	0.07121157
223	0x3de52756	0.11189143
224	0x3d9f1f51	0.07769645
225	0x3da436b2	0.08018245
226	0x3e03144c	0.12800711
227	0x3deba8e2	0.11506821
228	0x3dd66b4d	0.10469685
229	0x3d869f69	0.06573374
230	0x3d3f9d61	0.046780948
231	0x3c4f2d36	0.0126450565
232	0x3c0c152a	0.008549968
233	0xbe4fba8c	-0.20286006
234	0xbeaea0af	-0.34106967
235	0xbee9a0eb	-0.45630583
236	0xbea8ffb1	-0.33007577
237	0x3dbda3a6	0.09259729
238	0x3ebe155f	0.3712568
239	0x3e108d93	0.14116506
240	0xbda65b3c	-0.0812287
241	0xbf10cf91	-0.5656672
242	0xbf0dceb0	-0.55393505
243	0xbeb2907c	-0.34875858
244	0xbed93e53	-0.42430362
245	0xbed86734	-0.42266238
246	0xbee207d7	-0.44146606
247	0xbda7a6e6	-0.0818613
248	0x3d576a48	0.052591592
249	0x3deaa106	0.11456494
250	0x3da22536	0.07917254
251	0x3d8c7b94	0.06859508
252	0x3de78978	0.11305517
253	0x3de9f450	0.11423552
254	0x3da9f776	0.082991526
255	0x3dd67d66	0.104731366

3 f4 [100]
0	0xbe6430d7	-0.22284256
1	0xbd27cb99	-0.04096565
2	0xbd921dac	-0.07134566
3	0x3c963771	0.018336983
4	0xbe0e0d61	-0.13872291
5	0x3e3253f0	0.17414832
6	0xbc8d5315	-0.01725153
7	0xbd223813	-0.039604258
8	0x3be60362	0.007019446
9	0xbda6e456	-0.081490204
10	0x3d88dc76	0.066826746
11	0x3d1993e3	0.03749455
12	0xbe1f06ca	-0.15529934
13	0xbd9290f1	-0.07156552
14	0x3cfb94f5	0.030710677
15	0xbca20eba	-0.019782413
16	0x3c2f25db	0.010690178
17	0xbd9fbfcf	-0.078002565
18	0xbd513301	-0.05107403
19	0x3c7e6f14	0.015529413
20	0x3d9fd8e5	0.07805041
21	0x3e03b4c9	0.12861933
22	0xbdaab09e	-0.08334468
23	0xbca2c744	-0.019870408
24	0xbd50ea79	-0.05100486
25	0xbc7fba10	-0.015608326
26	0xbd30e0f0	-0.043183267
27	0xbd31858d	-0.043340255
28	0x3d0c11ea	0.03419677
29	0x3a279a49	0.0006393535
30	0xbd433d33	-0.047665786
31	0x3c46506c	0.012104135
32	0x3d19dff8	0.03756711
33	0xbc987486	-0.01861025
34	0x3e2ab8c8	0.16672051
35	0xbd5a9580	-0.05336523
36	0x3d2b11ce	0.041765027
37	0x3da3f10a	0.08004959
38	0x3b2bebec	0.002623315
39	0xbded50d6	-0.11587684
40	0xbabe74a8	-0.0014530616
41	0xbdc30d6b	-0.09524044
42	0xbcf8c688	-0.030368105
43	0xbdaec7e0	-0.08534217
44	0xbc8ee689	-0.017443912
45	0xbd466fb6	-0.04844638
46	0xbce76805	-0.028247843
47	0xbc933cc1	-0.017973306
48	0x3da014b5	0.078164496
49	0x3e1d567a	0.1536502
50	0xbc4c6de1	-0.012477369
51	0xbe5e5a5d	-0.21714158
52	0x3db66064	0.08905104
53	0xbc4976dc	-0.012296405
54	0xbbc2cdba	-0.0059449347
55	0xbd46c237	-0.04852506
56	0xbd58b36b	-0.05290548
57	0x3d1e0a08	0.038583785
58	0x3d4a76da	0.049429752
59	0xbd05d124	-0.032670155
60	0x3deba8c2	0.115067974
61	0x3c54a5f4	0.012979019
62	0x3e01149d	0.1260552
63	0xbde39cbb	-0.11113878
64	0xbda8284a	-0.082108095
65	0x3adc0145	0.0016785046
66	0xbc200be6	-0.009768462
67	0x3c0301e4	0.007996056
68	0xbd70cfdd	-0.058791984
69	0xbd8ac54e	-0.06775914
70	0xbba7ab5e	-0.005116864
71	0xbda57985	-0.08079819
72	0xbc898077	-0.01678489
73	0xbc9fbffd	-0.019500727
74	0x3e04cb2e	0.12968132
75	0x3e1349ea	0.14383665
76	0xbc4aeccf	-0.012385561
77	0x3e6e62e4	0.23279911
78	0xbd514588	-0.0510917
79	0xbd071d5a	-0.032986976
80	0xbc9afcff	-0.018919466
81	0xbd6e552e	-0.058186702
82	0xbd0b23d6	-0.033969723
83	0xbd3e7830	-0.04650134
84	0xbd534ef7	-0.05158898
85	0xbdef098d	-0.116717435
86	0xbdd27e32	-0.10277976
87	0xbd9e75d5	-0.077373184
88	0x3c449b9d	0.011999992
89	0xbdb0f607	-0.08640676
90	0xbd5bedf5	-0.05369373
91	0xb93920a1	-0.0001765513
92	0x3d1cce78	0.03828284
93	0xbe10d2e2	-0.14142945
94	0x3cdf9e1c	0.027297072
95	0x3e4240d1	0.18970038
96	0x3de12773	0.109938525
97	0xbd8ac3d6	-0.06775634
98	0x3dc975d0	0.09836924
99	0x3da61831	0.08110083

4 f4 [10, 100]
0	0xbdcb687d	-0.09932039
1	0xbec0dcc7	-0.3766844
2	0x3f00590e	0.50135887
3	0xbe7aceda	-0.2449297
4	0xbf9a1585	-1.2037817
5	0xbe6643d8	-0.22486818
6	0x3e8af446	0.2713949
7	0xbeb47ee1	-0.3525305
8	0x3f078f71	0.5295325
9	0x3ec6b4eb	0.38809904
10	0x3e8f0ca0	0.2793932
11	0xbf796e00	-0.9743347
12	0xbebe5cc6	-0.37180156
13	0xbf4f3598	-0.8094115
14	0x3ee52848	0.44757295
15	0x3d2fe3f7	0.042942014
16	0x3efc929a	0.49330598
17	0xbe25158a	-0.16121498
18	0x3f06b925	0.5262626
19	0xbea9c1e7	-0.33155748
20	0x3edce479	0.4314306
21	0xbf40f998	-0.7538085
22	0x3f04c7d0	0.5186739
23	0x3d390484	0.045170322
24	0xbd85be57	-0.06530445
25	0x3f805376	1.002547
26	0xbfde66c9	-1.7375118
27	0xbf51e8a7	-0.81995624
28	0xbe860bac	-0.2618078
29	0x3f3ae509	0.7300573
30	0xbe789647	-0.24276076
31	0x3dc20ed2	0.09475483
32	0xbeac87a5	-0.3369724
33	0x3ca71068	0.020393565
34	0x3f06a6a8	0.5259805
35	0x3ee17594	0.44035017
36	0x3e002ebf	0.12517832
37	0x3f074fca	0.52856123
38	0x3c4402dd	0.011963573
39	0xbf365b94	-0.7123349
40	0xbd97bda9	-0.07409222
41	0xbe891d16	-0.26780003
42	0xbe3e33b0	-0.18574405
43	0xbe0862c5	-0.13318928
44	0xbf5fe8d8	-0.87464666
45	0x3ec8602e	0.3913588
46	0xbe33116e	-0.17487118
47	0x3da61036	0.08108561
48	0x3f43c3b5	0.764705
49	0x3f02c814	0.51086545
50	0x3f0b3f05	0.54393035
51	0xbf279252	-0.6545764
52	0x3d87eb8e	0.06636725
53	0xbebe17a7	-0.3712742
54	0x3e320619	0.17385139
55	0x3dafcaab	0.08583578
56	0x3e63837a	0.22218123
57	0xbe848ed0	-0.25890207
58	0x3ecd3ee7	0.40087053
59	0xbed4b172	-0.4154163
60	0xbf4bd107	-0.79615825
61	0x3eb51f08	0.35375237
62	0x3ecdb782	0.40179068
63	0x3f4b32c2	0.79374325
64	0x3ebc4518	0.36771464
65	0x3d476dfc	0.048688874
66	0xbf6ebb02	-0.932541
67	0xbcbf6d46	-0.023367535
68	0xbf5b7d54	-0.8573811
69	0x3e177fdd	0.1479487
70	0x3f2b0e0d	0.66818315
71	0x3f8ad3c1	1.0845872
72	0x3f027f62	0.5097562
73	0x3e4eb2c9	0.20185389
74	0xbe8bd089	-0.27307537
75	0x3c12c255	0.008957465
76	0x3dae356d	0.08506284
77	0xbd933ef6	-0.07189743
78	0xbe9f55cc	-0.31120145
79	0xbe550afc	-0.20804971
80	0x3e799f6a	0.24377218
81	0xbebd7a91	-0.37007573
82	0xbf04d93d	-0.5189398
83	0xbeedc13f	-0.46436498
84	0xbf2cfcde	-0.67573345
85	0x3eae0892	0.33990914
86	0xbf951786	-1.1647804
87	0xbf2a26c3	-0.66465396
88	0xbf80169e	-1.0006902
89	0xbee079a1	-0.43842795
90	0x3c9300c4	0.017944701
91	0xbd1db06e	-0.038498335
92	0xbfcf7719	-1.6208221
93	0xbf8de22b	-1.1084646
94	0x3f4525d4	0.77010846
95	0x3f0c02c2	0.5469171
96	0xbf2ed826	-0.68298566
97	0x3d0243de	0.031803004
98	0x3f8b3ae9	1.0877353
99	0x3f8d4ce4	1.103909
100	0x3f3f27fa	0.74670374
101	0xbdf1efb3	-0.11813297
102	0x3f6b1e11	0.9184275
103	0xbf428546	-0.7598461
104	0xbf93fc15	-1.1561304
105	0xbe949d56	-0.29026288
106	0x3f446e29	0.7673059
107	0xbf3655bf	-0.7122459
108	0x3f68b8dd	0.9090708
109	0x3efc9ff0	0.49340773
110	0xbe2de6bf	-0.16982554
111	0x3e77c7f2	0.24197367
112	0x3f30cfe1	0.690672
113	0x3f8318e7	1.0241975
114	0xbf1ee4d1	-0.62067896
115	0xbd765f21	-0.060149316
116	0x3e72ec12	0.23722866
117	0x3d80b255	0.06284014
118	0xbe5fe907	-0.21866237
119	0x3e97c6d2	0.29643875
120	0xbf339b1a	-0.7015854
121	0x3e31078c	0.17288035
122	0x3e491461	0.1963668
123	0x3d87ce25	0.06631116
124	0x3fc08007	1.5039071
125	0x3eb3ebe4	0.35140908
126	0xbceda50e	-0.029009368
127	0x3f0b34e6	0.5437759
128	0x3e4402c5	0.19141681
129	0xbd840d73	-0.06447878
130	0x3e614bfe	0.22001645
131	0xbe5a032f	-0.21290277
132	0x3ec1e67e	0.37871164
133	0x3dae9060	0.08523631
134	0xbe9380ab	-0.28809103
135	0x3d303be5	0.04302587
136	0xbdbb6e11	-0.09151853
137	0xbe40f056	-0.18841681
138	0xbf5d753d	-0.86507016
139	0x3f82f7e9	1.0231906
140	0x3d81ee5c	0.063442916
141	0x3f318f80	0.6935959
142	0x3ccd64bc	0.025072448
143	0x3f0fa241	0.56106955
144	0x3e1a65c1	0.15077879
145	0xbeb66cdc	-0.35629928
146	0xbb3cf020	-0.002882965
147	0x3efeee1d	0.4979104
148	0xbf3ca2b7	-0.73685783
149	0xbda5fe81	-0.081051834
150	0xbe9438a4	-0.28949463
151	0xbddf579e	-0.109053835
152	0xbc737232	-0.014858769
153	0x3f22e6e5	0.6363357
154	0x3cd624bd	0.026140565
155	0x3c452270	0.012032136
156	0xbf3d50c5	-0.7395137
157	0xbef5b455	-0.47989145
158	0xbf3a51fe	-0.7278136
159	0xbd605d84	-0.054776683
160	0xbeac1161	-0.3360701
161	0x3ed7e0cc	0.42163694
162	0x3de2c3d1	0.11072505
163	0xbecbb088	-0.3978312
164	0xbeb753e6	-0.35806197
165	0x3f2defb8	0.67943907
166	0x3eab17e8	0.33416677
167	0xbe0e3ba3	-0.13889937
168	0x3f5c2e9c	0.8600862
169	0xbdae037c	-0.08496758
170	0x3f2589bf	0.6466331
171	0xbd0e7129	-0.034775887
172	0x3e77753f	0.2416582
173	0x3ceb1845	0.028698096
174	0xbeb5d835	-0.35516515
175	0xbc6d26b5	-0.0144745605
176	0x3ed40395	0.41408983
177	0x3d746bd9	0.059673164
178	0x3e8c3c57	0.27389786
179	0x3ff2e5f4	1.8976426
180	0xbf396386	-0.72417486
181	0x3c57e1fc	0.0131764375
182	0x3f449828	0.7679467
183	0x3e8448da	0.2583683
184	0x3f539d16	0.8266157
185	0xbf62bebc	-0.8857229
186	0x3f726b6f	0.9469518
187	0xbf0b50fb	-0.5442044
188	0x3f8085c3	1.0040821
189	0xbf32991f	-0.69764894
190	0x3f44fb5c	0.76946044
191	0xbf1f0dbe	-0.62130344
192	0x3c866f48	0.016410485
193	0xbe74a9b9	-0.23892869
194	0xbe032838	-0.12808311
195	0xbe3cff68	-0.18456805
196	0x3eabc17e	0.3354606
197	0x3d4dbb77	0.05022761
198	0xbe6f8c8f	-0.23393463
199	0x3dc1334f	0.094336145
200	0xbf57974d	-0.8421524
201	0xbfe579dc	-1.7927814
202	0x3f9d9eb1	1.2314054
203	0x3f9230dd	1.1421162
204	0xbf8f56de	-1.1198385
205	0x3f8eb486	1.1148841
206	0x3dc7111c	0.0972006
207	0xbf412033	-0.7543976
208	0x3e857608	0.26066613
209	0xbd039b1a	-0.03213034
210	0xbf1ef116	-0.6208662
211	0xbdeaf0c1	-0.114717014
212	0xbec76817	-0.38946602
213	0xbcfec569	-0.031099992
214	0x3f01e9a0	0.5074711
215	0x3f4af241	0.792759
216	0xbd1f6c06	-0.03892138
217	0xbec9a8c9	-0.39386585
218	0xbf5c43e5	-0.860411
219	0x3e34541d	0.17610212
220	0x3e086993	0.13321523
221	0xbe60fa62	-0.21970513
222	0x3cf82100	0.030289173
223	0x3d3909b1	0.045175258
224	0x3f04a469	0.5181337
225	0x3f40a515	0.75251895
226	0x3f161f6d	0.586417
227	0x3f4b8e26	0.79513776
228	0xbf1395e3	-0.57650584
229	0xbe59205a	-0.21203747
230	0xbdd4da79	-0.10393233
231	0x3dba995f	0.091112845
232	0x3d867996	0.065661594
233	0x3ded7b01	0.11595727
234	0xbd920b9d	-0.07131121
235	0xbf9813eb	-1.1881078
236	0xbf1b10b9	-0.6057239
237	0x3e4c5fff	0.19958495
238	0xbd9ebdcb	-0.07751044
239	0x3f642fc4	0.89135385
240	0x3efca430	0.49344015
241	0x3c8085d8	0.015688822
242	0x3d1f2352	0.038852043
243	0xbd357bb4	-0.044307426
244	0x3f07ab42	0.52995694
245	0x3f353a53	0.7079212
246	0xbf5084ac	-0.8145244
247	0xbe33a9b4	-0.17545205
248	0x3eb4f8b6	0.35346
249	0xbe1e53b4	-0.15461618
250	0x3f294659	0.66122967
251	0x3fbea591	1.4894277
252	0x3d4bca13	0.04975326
253	0x3f89c726	1.07639
254	0xbdaa738a	-0.083228186
255	0x3cf3a8b2	0.029743526

5 f4 [10]
0	0x3c099c47	0.008399076
1	0xbe50667f	-0.20351599
2	0xbd7766ff	-0.06040096
3	0xbda93a6a	-0.08263095
4	0xbe57a760	-0.21059942
5	0x3e399a82	0.18125346
6	0xbb45562c	-0.0030111177
7	0x3de42e73	0.11141672
8	0x3e96f8a0	0.2948656
9	0xbd20134f	-0.039080914
