models/S.onnx (onnx, 40595 bytes, 2 tensors)

2 f4 [10, 784]
000000 5b cc 88 3d 05 39 12 3d cf 4d 86 3d 3a 99 94 3d
       0.06679603 0.03569891 0.065578096 0.07255788
000010 bf 64 6b 3d dc 34 9f 3d 73 0b 9f 3c d2 53 75 3d
       0.057469126 0.07773754 0.01941464 0.05989439
000020 02 c1 8e 3d db df 57 3d b0 64 9b 3c d3 8c 20 3d
       0.06970407 0.05270372 0.01896891 0.0391968
000030 a1 77 2f 3d 19 cc a1 3c 1c 2c 2c 3d a4 86 89 3c
       0.042838696 0.019750642 0.042034253 0.016787834
000040 ca 12 c0 3c 2a 76 9a 3d 7d 58 18 3d fe a6 b9 3c
       0.02344646 0.07542069 0.037193764 0.022662636
000050 8e fc fc 3c 80 d9 de 3c 53 8f 5c 3d d6 25 2f 3d
       0.030882146 0.027203321 0.053847622 0.042760693
000060 ea f3 fe 3c 9a 5c 56 3d 60 95 02 3d e1 df 6b 3d
       0.031122167 0.052334405 0.031880736 0.057586554
000070 98 d2 4f 3d 57 16 14 3d 2a 2f 5d 3c 25 92 a0 3d
       0.050737947 0.036154117 0.013500014 0.07840375
000080 a1 d4 b0 3c d5 91 8f 3d a0 c7 20 3d 6b 01 54 3d
       0.021585764 0.07010237 0.039252877 0.051759165
000090 91 e6 ea 3c de f7 07 3d de 88 53 3d dd 3c ff 3d
       0.028674396 0.03319537 0.0516442 0.124627806
0000a0 c0 58 3f 3e 6c 54 b5 3d 76 b4 6a 3c cd 9d 1b 3e
       0.18686199 0.08853993 0.014325252 0.15196915
0000b0 5c 01 bf 3e ba eb 3a 3e 62 c2 d5 3c 40 f2 a6 3d
       0.37305725 0.18253985 0.026093666 0.08151674
0000c0 1c f2 7d 3d 29 df 2b 3d 2d 1c 96 3d bd 10 8e 3d
       0.06199847 0.04196087 0.07329593 0.06936786
0000d0 4a a1 26 3d de 49 b3 3c 2e 09 ec 3c e4 09 08 3d
       0.04068116 0.021885809 0.028812971 0.033212557
0000e0 3a cd 3c 3d 4e 76 03 3d 8c f5 f5 3c 30 c5 75 3d
       0.046094157 0.032095246 0.030024312 0.060002506
0000f0 43 12 96 3d c1 72 f2 3c f3 c5 7a 3c c8 36 78 bc
       0.07327702 0.029595735 0.015305984 -0.01514978
000100 e5 5a dd 3c 8c 85 b8 bc 3a 73 77 bb 19 6f 65 3c
       0.027020881 -0.022524618 -0.003775789 0.0140035385
000110 6b be 5a bd fb 80 41 bd a7 1d 39 be 2d 16 61 be
       -0.053404253 -0.047242146 -0.18077718 -0.21981116
000120 fb 96 a6 bd 2f 8f 04 be c7 7e 7d bd eb e0 00 3d
       -0.08134266 -0.12945245 -0.061888482 0.0314645
000130 a7 30 03 bc 13 9e d3 3c bd 2f fe 39 a6 8a 91 3d
       -0.008007205 0.025832212 0.00048482223 0.07106523
000140 35 fc 2c 3d 23 9b bc 3c b1 ad 1d 3d 83 51 d8 3c
       0.04223271 0.023023194 0.038495723 0.026406055
000150 21 29 7c 3d a2 80 33 3d 7e d5 50 3d 21 f1 4b 3d
       0.06156266 0.043823846 0.050984852 0.049790505
000160 c9 d1 81 3d b2 2a 61 bd 5a ed ab bd 42 39 11 be
       0.063388415 -0.054972358 -0.083948806 -0.14181998
000170 db af 91 3c 59 fa 18 bd a9 56 f3 bc 26 17 9a 3d
       0.01778405 -0.037348125 -0.029704409 0.075239465
000180 20 a4 2f 3d 00 00 a9 3e e6 40 6a 3e b7 5e 05 3d
       0.04288113 0.33007812 0.2287632 0.03256103
000190 83 de b2 3d 87 79 2e 3e 40 9f 92 bd ea 7c ed bd
       0.08733847 0.17038547 -0.07159281 -0.11596091
0001a0 93 cf 7c 3c 1d b3 39 be 61 a6 a7 bd df 14 17 3d
       0.015430349 -0.18134733 -0.08186031 0.03688514
0001b0 cf cd 2d 3d 8e 1c 40 3d d9 5e 13 3d 32 d9 87 3c
       0.042432602 0.046902232 0.035979126 0.016583059
0001c0 c4 5a e2 3c 3e 3c 9b 3d 1a e6 8c 3d 4d c8 19 3d
       0.027631171 0.0757985 0.06879826 0.037544537
0001d0 72 25 b6 3c a2 88 b3 bd 85 86 05 be 38 99 53 3d
       0.022234652 -0.08766295 -0.13039596 0.051659793
0001e0 44 d7 89 3d 1d 2c 5e 3e 02 16 92 bd a5 0f 93 3e
       0.06730512 0.21696515 -0.07133104 0.28722873
0001f0 01 ff 93 bd e9 29 a7 3e 77 62 2e 3d 9c 5f 06 3e
       -0.072263725 0.32649162 0.042574372 0.1312241
000200 2a e1 2b be 8f ad 86 3e f1 dd 89 3d b2 72 3b 3e
       -0.16785112 0.2630429 0.06731785 0.18305472
000210 df 4b cf 3d 05 02 eb bd fb 89 c5 bb 67 d3 6c bd
       0.10121893 -0.114749946 -0.0060284114 -0.057818796
000220 65 85 3d be a7 5f 73 bd fc 39 10 3d 60 2f 65 3d
       -0.18507917 -0.059417393 0.03521155 0.055953383
000230 7e a4 81 3d 65 1c 7f 3d 0b bb 36 3d 4a f1 80 3d
       0.063302025 0.06228294 0.04461197 0.06296022
000240 72 be e1 3c 70 b7 7b be ab c1 f2 bb 10 40 a8 bd
       0.027556632 -0.24581695 -0.007408341 -0.08215344
000250 d0 86 18 3d 4d 9f 50 bd 2f ef bc 3d 61 ce d0 3c
       0.037237942 -0.05093317 0.09225308 0.025489034
000260 37 21 06 be 8b 93 0b 3e c8 1c 2f 3e 7e 6f 20 3d
       -0.13098608 0.13630502 0.17100823 0.039168827
000270 ce c3 e3 3c 11 9c ca 3d a4 24 2e 3e cc 27 cc 3d
       0.027803328 0.098930486 0.17006165 0.09968528
000280 0b 27 cf bd 58 bd 0c be ba 08 e7 bc f1 73 84 be
       -0.10114869 -0.13744104 -0.028202403 -0.25869706
000290 37 18 16 be 9d 84 39 be f7 97 a6 bb 9f 11 ba 3c
       -0.14657675 -0.18116994 -0.0050840336 0.02271348
0002a0 a1 97 a4 3d 5b df 8d 3c c8 e2 91 3d 21 78 9a 3d
       0.080367334 0.017318418 0.07123333 0.07542444
0002b0 da a9 10 bd e5 1e e9 bd c7 47 ca bc a4 99 b2 3d
       -0.035318233 -0.11382846 -0.02469243 0.08720711
0002c0 a1 c9 59 bc df c8 07 bf da 10 a8 bd 98 d6 fa ba
       -0.013292701 -0.5304088 -0.08206339 -0.001913744
0002d0 47 b4 52 be 6a 28 44 3e 17 33 d5 3d e5 50 9d bd
       -0.20576583 0.19156042 0.10410135 -0.07681445
0002e0 6c 9b 9c 3e 4c d8 09 bd 21 af 9f 3d 78 f1 e7 bd
       0.30587327 -0.033653542 0.07797075 -0.113253534
0002f0 9e 5c c8 3d b8 f7 8c 3e e7 0f d6 3e f7 07 36 bd
       0.0978329 0.27532744 0.41809008 -0.04444119
000300 cd e9 aa be 45 22 ba be 73 eb 3d be ec 1a c9 bc
       -0.333815 -0.3635427 -0.18546848 -0.02454897
000310 e5 8a 8e 3d 1c 8c df 3c 21 7d 3c 3c 94 14 3d 3d
       0.06960086 0.027288489 0.011504442 0.046162203
000320 bf 7c 8e bd 31 6b 8e bd 9f db 10 3e 97 66 25 3d
       -0.06957387 -0.06954039 0.14146279 0.04038104
000330 7c 6c 93 be 0e 63 25 3e b1 19 13 3e d4 85 9b 3e
       -0.28793705 0.16151068 0.14365269 0.3037554
000340 9e 12 10 be a3 f4 04 3e 21 c7 93 3c 90 17 17 be
       -0.14069602 0.12983947 0.018039288 -0.14755082
000350 0b 65 01 be 9f ce b4 3e 92 9b 68 3e 13 f4 14 3e
       -0.12636201 0.3531389 0.22715595 0.14546232
000360 c9 af 0b 3d f3 d7 b5 bd 30 a5 0f be 21 10 75 3e
       0.03410319 -0.0887908 -0.14027858 0.23931934
000370 c4 73 40 bc a7 b6 98 be 88 3e 3b be 4f cf 26 3d
       -0.011746351 -0.29826853 -0.18285573 0.04072505
000380 56 96 0c 3e cd 88 86 3d 43 00 67 3d 30 47 28 3d
       0.13729224 0.065690614 0.056396734 0.041083515
000390 13 0c eb bd c1 33 d2 bd 8c f3 c0 3c ed 8d 4c bd
       -0.11476912 -0.102637775 0.023553632 -0.04994004
0003a0 9b 75 2f 3d 31 23 8f 3e 69 48 19 bd 19 8b d1 bc
       0.042836767 0.27956536 -0.03742257 -0.025579022
0003b0 bd ad 73 3e 5d 9b 9f bd 36 d8 8e 3e 7f 2d 38 3d
       0.23796745 -0.07793305 0.2789933 0.044965263
0003c0 91 f6 fc 3e 58 78 9c 3e 1a 2a 1c 3e 04 16 00 be
       0.49406865 0.30560565 0.15250435 -0.12508398
0003d0 e0 63 26 3e 24 12 67 3e 14 87 66 3e f3 18 41 3e
       0.16249037 0.22565514 0.22512466 0.18857174
0003e0 39 70 50 3e 65 ae f2 be c1 a7 14 be 59 f9 ea 3b
       0.2035531 -0.47398677 -0.14517118 0.007170838
0003f0 40 9c 7d 3d 16 fa a1 3d c9 93 5c 3d 33 6d d9 3d
       0.06191659 0.07909028 0.053851876 0.10616531

3 f4 [10]
000000 56 57 03 be 61 9c 17 be 3d 3c 1f 3e f7 c0 35 3e
       -0.12826285 -0.14805748 0.15550323 0.17749391
000010 62 41 4a be 66 b8 3f 3e 1f ea e0 3c 62 3e 2a bd
       -0.19751504 0.18722686 0.027455388 -0.0415634
000020 2a f1 ab bb a4 51 ad bd
       -0.005247255 -0.08462837
